{"config": {"output_layers": [["output_layer", 0, 0]], "layers": [{"config": {"dtype": "float32", "batch_input_shape": [null, 3, null, null], "name": "input_2", "sparse": false}, "class_name": "InputLayer", "name": "input_2", "inbound_nodes": []}, {"config": {"data_format": "channels_first", "trainable": false, "name": "zero_padding2d_1", "padding": [[3, 3], [3, 3]]}, "class_name": "ZeroPadding2D", "name": "zero_padding2d_1", "inbound_nodes": [[["input_2", 0, 0, {}]]]}, {"config": {"bias_constraint": null, "activity_regularizer": null, "trainable": false, "bias_regularizer": null, "strides": [2, 2], "activation": "linear", "padding": "valid", "name": "conv1", "kernel_initializer": {"config": {"distribution": "uniform", "scale": 1.0, "mode": "fan_avg", "seed": null}, "class_name": "VarianceScaling"}, "dilation_rate": [1, 1], "kernel_size": [7, 7], "data_format": "channels_first", "use_bias": true, "kernel_regularizer": null, "filters": 64, "kernel_constraint": null, "bias_initializer": {"config": {}, "class_name": "Zeros"}}, "class_name": "Conv2D", "name": "conv1", "inbound_nodes": [[["zero_padding2d_1", 0, 0, {}]]]}, {"config": {"moving_mean_initializer": {"config": {}, "class_name": "Zeros"}, "momentum": 0.99, "gamma_constraint": null, "trainable": false, "beta_regularizer": null, "moving_variance_initializer": {"config": {}, "class_name": "Ones"}, "gamma_initializer": {"config": {}, "class_name": "Ones"}, "gamma_regularizer": null, "beta_initializer": {"config": {}, "class_name": "Zeros"}, "name": "bn_conv1", "scale": true, "epsilon": 0.001, "beta_constraint": null, "axis": 1, "center": true}, "class_name": "BatchNormalization", "name": "bn_conv1", "inbound_nodes": [[["conv1", 0, 0, {}]]]}, {"config": {"activation": "relu", "trainable": false, "name": "activation_1"}, "class_name": "Activation", "name": "activation_1", "inbound_nodes": [[["bn_conv1", 0, 0, {}]]]}, {"config": {"trainable": false, "data_format": "channels_first", "strides": [2, 2], "name": "max_pooling2d_1", "padding": "valid", "pool_size": [3, 3]}, "class_name": "MaxPooling2D", "name": "max_pooling2d_1", "inbound_nodes": [[["activation_1", 0, 0, {}]]]}, {"config": {"bias_constraint": null, "activity_regularizer": null, "trainable": false, "bias_regularizer": null, "strides": [1, 1], "activation": "linear", "padding": "valid", "name": "res2a_branch2a", "kernel_initializer": {"config": {"distribution": "uniform", "scale": 1.0, "mode": "fan_avg", "seed": null}, "class_name": "VarianceScaling"}, "dilation_rate": [1, 1], "kernel_size": [1, 1], "data_format": "channels_first", "use_bias": true, "kernel_regularizer": null, "filters": 64, "kernel_constraint": null, "bias_initializer": {"config": {}, "class_name": "Zeros"}}, "class_name": "Conv2D", "name": "res2a_branch2a", "inbound_nodes": [[["max_pooling2d_1", 0, 0, {}]]]}, {"config": {"moving_mean_initializer": {"config": {}, "class_name": "Zeros"}, "momentum": 0.99, "gamma_constraint": null, "trainable": false, "beta_regularizer": null, "moving_variance_initializer": {"config": {}, "class_name": "Ones"}, "gamma_initializer": {"config": {}, "class_name": "Ones"}, "gamma_regularizer": null, "beta_initializer": {"config": {}, "class_name": "Zeros"}, "name": "bn2a_branch2a", "scale": true, "epsilon": 0.001, "beta_constraint": null, "axis": 1, "center": true}, "class_name": "BatchNormalization", "name": "bn2a_branch2a", "inbound_nodes": [[["res2a_branch2a", 0, 0, {}]]]}, {"config": {"activation": "relu", "trainable": false, "name": "activation_2"}, "class_name": "Activation", "name": "activation_2", "inbound_nodes": [[["bn2a_branch2a", 0, 0, {}]]]}, {"config": {"bias_constraint": null, "activity_regularizer": null, "trainable": false, "bias_regularizer": null, "strides": [1, 1], "activation": "linear", "padding": "same", "name": "res2a_branch2b", "kernel_initializer": {"config": {"distribution": "uniform", "scale": 1.0, "mode": "fan_avg", "seed": null}, "class_name": "VarianceScaling"}, "dilation_rate": [1, 1], "kernel_size": [3, 3], "data_format": "channels_first", "use_bias": true, "kernel_regularizer": null, "filters": 64, "kernel_constraint": null, "bias_initializer": {"config": {}, "class_name": "Zeros"}}, "class_name": "Conv2D", "name": "res2a_branch2b", "inbound_nodes": [[["activation_2", 0, 0, {}]]]}, {"config": {"moving_mean_initializer": {"config": {}, "class_name": "Zeros"}, "momentum": 0.99, "gamma_constraint": null, "trainable": false, "beta_regularizer": null, "moving_variance_initializer": {"config": {}, "class_name": "Ones"}, "gamma_initializer": {"config": {}, "class_name": "Ones"}, "gamma_regularizer": null, "beta_initializer": {"config": {}, "class_name": "Zeros"}, "name": "bn2a_branch2b", "scale": true, "epsilon": 0.001, "beta_constraint": null, "axis": 1, "center": true}, "class_name": "BatchNormalization", "name": "bn2a_branch2b", "inbound_nodes": [[["res2a_branch2b", 0, 0, {}]]]}, {"config": {"activation": "relu", "trainable": false, "name": "activation_3"}, "class_name": "Activation", "name": "activation_3", "inbound_nodes": [[["bn2a_branch2b", 0, 0, {}]]]}, {"config": {"bias_constraint": null, "activity_regularizer": null, "trainable": false, "bias_regularizer": null, "strides": [1, 1], "activation": "linear", "padding": "valid", "name": "res2a_branch2c", "kernel_initializer": {"config": {"distribution": "uniform", "scale": 1.0, "mode": "fan_avg", "seed": null}, "class_name": "VarianceScaling"}, "dilation_rate": [1, 1], "kernel_size": [1, 1], "data_format": "channels_first", "use_bias": true, "kernel_regularizer": null, "filters": 256, "kernel_constraint": null, "bias_initializer": {"config": {}, "class_name": "Zeros"}}, "class_name": "Conv2D", "name": "res2a_branch2c", "inbound_nodes": [[["activation_3", 0, 0, {}]]]}, {"config": {"bias_constraint": null, "activity_regularizer": null, "trainable": false, "bias_regularizer": null, "strides": [1, 1], "activation": "linear", "padding": "valid", "name": "res2a_branch1", "kernel_initializer": {"config": {"distribution": "uniform", "scale": 1.0, "mode": "fan_avg", "seed": null}, "class_name": "VarianceScaling"}, "dilation_rate": [1, 1], "kernel_size": [1, 1], "data_format": "channels_first", "use_bias": true, "kernel_regularizer": null, "filters": 256, "kernel_constraint": null, "bias_initializer": {"config": {}, "class_name": "Zeros"}}, "class_name": "Conv2D", "name": "res2a_branch1", "inbound_nodes": [[["max_pooling2d_1", 0, 0, {}]]]}, {"config": {"moving_mean_initializer": {"config": {}, "class_name": "Zeros"}, "momentum": 0.99, "gamma_constraint": null, "trainable": false, "beta_regularizer": null, "moving_variance_initializer": {"config": {}, "class_name": "Ones"}, "gamma_initializer": {"config": {}, "class_name": "Ones"}, "gamma_regularizer": null, "beta_initializer": {"config": {}, "class_name": "Zeros"}, "name": "bn2a_branch2c", "scale": true, "epsilon": 0.001, "beta_constraint": null, "axis": 1, "center": true}, "class_name": "BatchNormalization", "name": "bn2a_branch2c", "inbound_nodes": [[["res2a_branch2c", 0, 0, {}]]]}, {"config": {"moving_mean_initializer": {"config": {}, "class_name": "Zeros"}, "momentum": 0.99, "gamma_constraint": null, "trainable": false, "beta_regularizer": null, "moving_variance_initializer": {"config": {}, "class_name": "Ones"}, "gamma_initializer": {"config": {}, "class_name": "Ones"}, "gamma_regularizer": null, "beta_initializer": {"config": {}, "class_name": "Zeros"}, "name": "bn2a_branch1", "scale": true, "epsilon": 0.001, "beta_constraint": null, "axis": 1, "center": true}, "class_name": "BatchNormalization", "name": "bn2a_branch1", "inbound_nodes": [[["res2a_branch1", 0, 0, {}]]]}, {"config": {"trainable": false, "name": "add_1"}, "class_name": "Add", "name": "add_1", "inbound_nodes": [[["bn2a_branch2c", 0, 0, {}], ["bn2a_branch1", 0, 0, {}]]]}, {"config": {"activation": "relu", "trainable": false, "name": "activation_4"}, "class_name": "Activation", "name": "activation_4", "inbound_nodes": [[["add_1", 0, 0, {}]]]}, {"config": {"bias_constraint": null, "activity_regularizer": null, "trainable": false, "bias_regularizer": null, "strides": [1, 1], "activation": "linear", "padding": "valid", "name": "res2b_branch2a", "kernel_initializer": {"config": {"distribution": "uniform", "scale": 1.0, "mode": "fan_avg", "seed": null}, "class_name": "VarianceScaling"}, "dilation_rate": [1, 1], "kernel_size": [1, 1], "data_format": "channels_first", "use_bias": true, "kernel_regularizer": null, "filters": 64, "kernel_constraint": null, "bias_initializer": {"config": {}, "class_name": "Zeros"}}, "class_name": "Conv2D", "name": "res2b_branch2a", "inbound_nodes": [[["activation_4", 0, 0, {}]]]}, {"config": {"moving_mean_initializer": {"config": {}, "class_name": "Zeros"}, "momentum": 0.99, "gamma_constraint": null, "trainable": false, "beta_regularizer": null, "moving_variance_initializer": {"config": {}, "class_name": "Ones"}, "gamma_initializer": {"config": {}, "class_name": "Ones"}, "gamma_regularizer": null, "beta_initializer": {"config": {}, "class_name": "Zeros"}, "name": "bn2b_branch2a", "scale": true, "epsilon": 0.001, "beta_constraint": null, "axis": 1, "center": true}, "class_name": "BatchNormalization", "name": "bn2b_branch2a", "inbound_nodes": [[["res2b_branch2a", 0, 0, {}]]]}, {"config": {"activation": "relu", "trainable": false, "name": "activation_5"}, "class_name": "Activation", "name": "activation_5", "inbound_nodes": [[["bn2b_branch2a", 0, 0, {}]]]}, {"config": {"bias_constraint": null, "activity_regularizer": null, "trainable": false, "bias_regularizer": null, "strides": [1, 1], "activation": "linear", "padding": "same", "name": "res2b_branch2b", "kernel_initializer": {"config": {"distribution": "uniform", "scale": 1.0, "mode": "fan_avg", "seed": null}, "class_name": "VarianceScaling"}, "dilation_rate": [1, 1], "kernel_size": [3, 3], "data_format": "channels_first", "use_bias": true, "kernel_regularizer": null, "filters": 64, "kernel_constraint": null, "bias_initializer": {"config": {}, "class_name": "Zeros"}}, "class_name": "Conv2D", "name": "res2b_branch2b", "inbound_nodes": [[["activation_5", 0, 0, {}]]]}, {"config": {"moving_mean_initializer": {"config": {}, "class_name": "Zeros"}, "momentum": 0.99, "gamma_constraint": null, "trainable": false, "beta_regularizer": null, "moving_variance_initializer": {"config": {}, "class_name": "Ones"}, "gamma_initializer": {"config": {}, "class_name": "Ones"}, "gamma_regularizer": null, "beta_initializer": {"config": {}, "class_name": "Zeros"}, "name": "bn2b_branch2b", "scale": true, "epsilon": 0.001, "beta_constraint": null, "axis": 1, "center": true}, "class_name": "BatchNormalization", "name": "bn2b_branch2b", "inbound_nodes": [[["res2b_branch2b", 0, 0, {}]]]}, {"config": {"activation": "relu", "trainable": false, "name": "activation_6"}, "class_name": "Activation", "name": "activation_6", "inbound_nodes": [[["bn2b_branch2b", 0, 0, {}]]]}, {"config": {"bias_constraint": null, "activity_regularizer": null, "trainable": false, "bias_regularizer": null, "strides": [1, 1], "activation": "linear", "padding": "valid", "name": "res2b_branch2c", "kernel_initializer": {"config": {"distribution": "uniform", "scale": 1.0, "mode": "fan_avg", "seed": null}, "class_name": "VarianceScaling"}, "dilation_rate": [1, 1], "kernel_size": [1, 1], "data_format": "channels_first", "use_bias": true, "kernel_regularizer": null, "filters": 256, "kernel_constraint": null, "bias_initializer": {"config": {}, "class_name": "Zeros"}}, "class_name": "Conv2D", "name": "res2b_branch2c", "inbound_nodes": [[["activation_6", 0, 0, {}]]]}, {"config": {"moving_mean_initializer": {"config": {}, "class_name": "Zeros"}, "momentum": 0.99, "gamma_constraint": null, "trainable": false, "beta_regularizer": null, "moving_variance_initializer": {"config": {}, "class_name": "Ones"}, "gamma_initializer": {"config": {}, "class_name": "Ones"}, "gamma_regularizer": null, "beta_initializer": {"config": {}, "class_name": "Zeros"}, "name": "bn2b_branch2c", "scale": true, "epsilon": 0.001, "beta_constraint": null, "axis": 1, "center": true}, "class_name": "BatchNormalization", "name": "bn2b_branch2c", "inbound_nodes": [[["res2b_branch2c", 0, 0, {}]]]}, {"config": {"trainable": false, "name": "add_2"}, "class_name": "Add", "name": "add_2", "inbound_nodes": [[["bn2b_branch2c", 0, 0, {}], ["activation_4", 0, 0, {}]]]}, {"config": {"activation": "relu", "trainable": false, "name": "activation_7"}, "class_name": "Activation", "name": "activation_7", "inbound_nodes": [[["add_2", 0, 0, {}]]]}, {"config": {"bias_constraint": null, "activity_regularizer": null, "trainable": false, "bias_regularizer": null, "strides": [1, 1], "activation": "linear", "padding": "valid", "name": "res2c_branch2a", "kernel_initializer": {"config": {"distribution": "uniform", "scale": 1.0, "mode": "fan_avg", "seed": null}, "class_name": "VarianceScaling"}, "dilation_rate": [1, 1], "kernel_size": [1, 1], "data_format": "channels_first", "use_bias": true, "kernel_regularizer": null, "filters": 64, "kernel_constraint": null, "bias_initializer": {"config": {}, "class_name": "Zeros"}}, "class_name": "Conv2D", "name": "res2c_branch2a", "inbound_nodes": [[["activation_7", 0, 0, {}]]]}, {"config": {"moving_mean_initializer": {"config": {}, "class_name": "Zeros"}, "momentum": 0.99, "gamma_constraint": null, "trainable": false, "beta_regularizer": null, "moving_variance_initializer": {"config": {}, "class_name": "Ones"}, "gamma_initializer": {"config": {}, "class_name": "Ones"}, "gamma_regularizer": null, "beta_initializer": {"config": {}, "class_name": "Zeros"}, "name": "bn2c_branch2a", "scale": true, "epsilon": 0.001, "beta_constraint": null, "axis": 1, "center": true}, "class_name": "BatchNormalization", "name": "bn2c_branch2a", "inbound_nodes": [[["res2c_branch2a", 0, 0, {}]]]}, {"config": {"activation": "relu", "trainable": false, "name": "activation_8"}, "class_name": "Activation", "name": "activation_8", "inbound_nodes": [[["bn2c_branch2a", 0, 0, {}]]]}, {"config": {"bias_constraint": null, "activity_regularizer": null, "trainable": false, "bias_regularizer": null, "strides": [1, 1], "activation": "linear", "padding": "same", "name": "res2c_branch2b", "kernel_initializer": {"config": {"distribution": "uniform", "scale": 1.0, "mode": "fan_avg", "seed": null}, "class_name": "VarianceScaling"}, "dilation_rate": [1, 1], "kernel_size": [3, 3], "data_format": "channels_first", "use_bias": true, "kernel_regularizer": null, "filters": 64, "kernel_constraint": null, "bias_initializer": {"config": {}, "class_name": "Zeros"}}, "class_name": "Conv2D", "name": "res2c_branch2b", "inbound_nodes": [[["activation_8", 0, 0, {}]]]}, {"config": {"moving_mean_initializer": {"config": {}, "class_name": "Zeros"}, "momentum": 0.99, "gamma_constraint": null, "trainable": false, "beta_regularizer": null, "moving_variance_initializer": {"config": {}, "class_name": "Ones"}, "gamma_initializer": {"config": {}, "class_name": "Ones"}, "gamma_regularizer": null, "beta_initializer": {"config": {}, "class_name": "Zeros"}, "name": "bn2c_branch2b", "scale": true, "epsilon": 0.001, "beta_constraint": null, "axis": 1, "center": true}, "class_name": "BatchNormalization", "name": "bn2c_branch2b", "inbound_nodes": [[["res2c_branch2b", 0, 0, {}]]]}, {"config": {"activation": "relu", "trainable": false, "name": "activation_9"}, "class_name": "Activation", "name": "activation_9", "inbound_nodes": [[["bn2c_branch2b", 0, 0, {}]]]}, {"config": {"bias_constraint": null, "activity_regularizer": null, "trainable": false, "bias_regularizer": null, "strides": [1, 1], "activation": "linear", "padding": "valid", "name": "res2c_branch2c", "kernel_initializer": {"config": {"distribution": "uniform", "scale": 1.0, "mode": "fan_avg", "seed": null}, "class_name": "VarianceScaling"}, "dilation_rate": [1, 1], "kernel_size": [1, 1], "data_format": "channels_first", "use_bias": true, "kernel_regularizer": null, "filters": 256, "kernel_constraint": null, "bias_initializer": {"config": {}, "class_name": "Zeros"}}, "class_name": "Conv2D", "name": "res2c_branch2c", "inbound_nodes": [[["activation_9", 0, 0, {}]]]}, {"config": {"moving_mean_initializer": {"config": {}, "class_name": "Zeros"}, "momentum": 0.99, "gamma_constraint": null, "trainable": false, "beta_regularizer": null, "moving_variance_initializer": {"config": {}, "class_name": "Ones"}, "gamma_initializer": {"config": {}, "class_name": "Ones"}, "gamma_regularizer": null, "beta_initializer": {"config": {}, "class_name": "Zeros"}, "name": "bn2c_branch2c", "scale": true, "epsilon": 0.001, "beta_constraint": null, "axis": 1, "center": true}, "class_name": "BatchNormalization", "name": "bn2c_branch2c", "inbound_nodes": [[["res2c_branch2c", 0, 0, {}]]]}, {"config": {"trainable": false, "name": "add_3"}, "class_name": "Add", "name": "add_3", "inbound_nodes": [[["bn2c_branch2c", 0, 0, {}], ["activation_7", 0, 0, {}]]]}, {"config": {"activation": "relu", "trainable": false, "name": "activation_10"}, "class_name": "Activation", "name": "activation_10", "inbound_nodes": [[["add_3", 0, 0, {}]]]}, {"config": {"bias_constraint": null, "activity_regularizer": null, "trainable": false, "bias_regularizer": null, "strides": [2, 2], "activation": "linear", "padding": "valid", "name": "res3a_branch2a", "kernel_initializer": {"config": {"distribution": "uniform", "scale": 1.0, "mode": "fan_avg", "seed": null}, "class_name": "VarianceScaling"}, "dilation_rate": [1, 1], "kernel_size": [1, 1], "data_format": "channels_first", "use_bias": true, "kernel_regularizer": null, "filters": 128, "kernel_constraint": null, "bias_initializer": {"config": {}, "class_name": "Zeros"}}, "class_name": "Conv2D", "name": "res3a_branch2a", "inbound_nodes": [[["activation_10", 0, 0, {}]]]}, {"config": {"moving_mean_initializer": {"config": {}, "class_name": "Zeros"}, "momentum": 0.99, "gamma_constraint": null, "trainable": false, "beta_regularizer": null, "moving_variance_initializer": {"config": {}, "class_name": "Ones"}, "gamma_initializer": {"config": {}, "class_name": "Ones"}, "gamma_regularizer": null, "beta_initializer": {"config": {}, "class_name": "Zeros"}, "name": "bn3a_branch2a", "scale": true, "epsilon": 0.001, "beta_constraint": null, "axis": 1, "center": true}, "class_name": "BatchNormalization", "name": "bn3a_branch2a", "inbound_nodes": [[["res3a_branch2a", 0, 0, {}]]]}, {"config": {"activation": "relu", "trainable": false, "name": "activation_11"}, "class_name": "Activation", "name": "activation_11", "inbound_nodes": [[["bn3a_branch2a", 0, 0, {}]]]}, {"config": {"bias_constraint": null, "activity_regularizer": null, "trainable": false, "bias_regularizer": null, "strides": [1, 1], "activation": "linear", "padding": "same", "name": "res3a_branch2b", "kernel_initializer": {"config": {"distribution": "uniform", "scale": 1.0, "mode": "fan_avg", "seed": null}, "class_name": "VarianceScaling"}, "dilation_rate": [1, 1], "kernel_size": [3, 3], "data_format": "channels_first", "use_bias": true, "kernel_regularizer": null, "filters": 128, "kernel_constraint": null, "bias_initializer": {"config": {}, "class_name": "Zeros"}}, "class_name": "Conv2D", "name": "res3a_branch2b", "inbound_nodes": [[["activation_11", 0, 0, {}]]]}, {"config": {"moving_mean_initializer": {"config": {}, "class_name": "Zeros"}, "momentum": 0.99, "gamma_constraint": null, "trainable": false, "beta_regularizer": null, "moving_variance_initializer": {"config": {}, "class_name": "Ones"}, "gamma_initializer": {"config": {}, "class_name": "Ones"}, "gamma_regularizer": null, "beta_initializer": {"config": {}, "class_name": "Zeros"}, "name": "bn3a_branch2b", "scale": true, "epsilon": 0.001, "beta_constraint": null, "axis": 1, "center": true}, "class_name": "BatchNormalization", "name": "bn3a_branch2b", "inbound_nodes": [[["res3a_branch2b", 0, 0, {}]]]}, {"config": {"activation": "relu", "trainable": false, "name": "activation_12"}, "class_name": "Activation", "name": "activation_12", "inbound_nodes": [[["bn3a_branch2b", 0, 0, {}]]]}, {"config": {"bias_constraint": null, "activity_regularizer": null, "trainable": false, "bias_regularizer": null, "strides": [1, 1], "activation": "linear", "padding": "valid", "name": "res3a_branch2c", "kernel_initializer": {"config": {"distribution": "uniform", "scale": 1.0, "mode": "fan_avg", "seed": null}, "class_name": "VarianceScaling"}, "dilation_rate": [1, 1], "kernel_size": [1, 1], "data_format": "channels_first", "use_bias": true, "kernel_regularizer": null, "filters": 512, "kernel_constraint": null, "bias_initializer": {"config": {}, "class_name": "Zeros"}}, "class_name": "Conv2D", "name": "res3a_branch2c", "inbound_nodes": [[["activation_12", 0, 0, {}]]]}, {"config": {"bias_constraint": null, "activity_regularizer": null, "trainable": false, "bias_regularizer": null, "strides": [2, 2], "activation": "linear", "padding": "valid", "name": "res3a_branch1", "kernel_initializer": {"config": {"distribution": "uniform", "scale": 1.0, "mode": "fan_avg", "seed": null}, "class_name": "VarianceScaling"}, "dilation_rate": [1, 1], "kernel_size": [1, 1], "data_format": "channels_first", "use_bias": true, "kernel_regularizer": null, "filters": 512, "kernel_constraint": null, "bias_initializer": {"config": {}, "class_name": "Zeros"}}, "class_name": "Conv2D", "name": "res3a_branch1", "inbound_nodes": [[["activation_10", 0, 0, {}]]]}, {"config": {"moving_mean_initializer": {"config": {}, "class_name": "Zeros"}, "momentum": 0.99, "gamma_constraint": null, "trainable": false, "beta_regularizer": null, "moving_variance_initializer": {"config": {}, "class_name": "Ones"}, "gamma_initializer": {"config": {}, "class_name": "Ones"}, "gamma_regularizer": null, "beta_initializer": {"config": {}, "class_name": "Zeros"}, "name": "bn3a_branch2c", "scale": true, "epsilon": 0.001, "beta_constraint": null, "axis": 1, "center": true}, "class_name": "BatchNormalization", "name": "bn3a_branch2c", "inbound_nodes": [[["res3a_branch2c", 0, 0, {}]]]}, {"config": {"moving_mean_initializer": {"config": {}, "class_name": "Zeros"}, "momentum": 0.99, "gamma_constraint": null, "trainable": false, "beta_regularizer": null, "moving_variance_initializer": {"config": {}, "class_name": "Ones"}, "gamma_initializer": {"config": {}, "class_name": "Ones"}, "gamma_regularizer": null, "beta_initializer": {"config": {}, "class_name": "Zeros"}, "name": "bn3a_branch1", "scale": true, "epsilon": 0.001, "beta_constraint": null, "axis": 1, "center": true}, "class_name": "BatchNormalization", "name": "bn3a_branch1", "inbound_nodes": [[["res3a_branch1", 0, 0, {}]]]}, {"config": {"trainable": false, "name": "add_4"}, "class_name": "Add", "name": "add_4", "inbound_nodes": [[["bn3a_branch2c", 0, 0, {}], ["bn3a_branch1", 0, 0, {}]]]}, {"config": {"activation": "relu", "trainable": false, "name": "activation_13"}, "class_name": "Activation", "name": "activation_13", "inbound_nodes": [[["add_4", 0, 0, {}]]]}, {"config": {"bias_constraint": null, "activity_regularizer": null, "trainable": false, "bias_regularizer": null, "strides": [1, 1], "activation": "linear", "padding": "valid", "name": "res3b_branch2a", "kernel_initializer": {"config": {"distribution": "uniform", "scale": 1.0, "mode": "fan_avg", "seed": null}, "class_name": "VarianceScaling"}, "dilation_rate": [1, 1], "kernel_size": [1, 1], "data_format": "channels_first", "use_bias": true, "kernel_regularizer": null, "filters": 128, "kernel_constraint": null, "bias_initializer": {"config": {}, "class_name": "Zeros"}}, "class_name": "Conv2D", "name": "res3b_branch2a", "inbound_nodes": [[["activation_13", 0, 0, {}]]]}, {"config": {"moving_mean_initializer": {"config": {}, "class_name": "Zeros"}, "momentum": 0.99, "gamma_constraint": null, "trainable": false, "beta_regularizer": null, "moving_variance_initializer": {"config": {}, "class_name": "Ones"}, "gamma_initializer": {"config": {}, "class_name": "Ones"}, "gamma_regularizer": null, "beta_initializer": {"config": {}, "class_name": "Zeros"}, "name": "bn3b_branch2a", "scale": true, "epsilon": 0.001, "beta_constraint": null, "axis": 1, "center": true}, "class_name": "BatchNormalization", "name": "bn3b_branch2a", "inbound_nodes": [[["res3b_branch2a", 0, 0, {}]]]}, {"config": {"activation": "relu", "trainable": false, "name": "activation_14"}, "class_name": "Activation", "name": "activation_14", "inbound_nodes": [[["bn3b_branch2a", 0, 0, {}]]]}, {"config": {"bias_constraint": null, "activity_regularizer": null, "trainable": false, "bias_regularizer": null, "strides": [1, 1], "activation": "linear", "padding": "same", "name": "res3b_branch2b", "kernel_initializer": {"config": {"distribution": "uniform", "scale": 1.0, "mode": "fan_avg", "seed": null}, "class_name": "VarianceScaling"}, "dilation_rate": [1, 1], "kernel_size": [3, 3], "data_format": "channels_first", "use_bias": true, "kernel_regularizer": null, "filters": 128, "kernel_constraint": null, "bias_initializer": {"config": {}, "class_name": "Zeros"}}, "class_name": "Conv2D", "name": "res3b_branch2b", "inbound_nodes": [[["activation_14", 0, 0, {}]]]}, {"config": {"moving_mean_initializer": {"config": {}, "class_name": "Zeros"}, "momentum": 0.99, "gamma_constraint": null, "trainable": false, "beta_regularizer": null, "moving_variance_initializer": {"config": {}, "class_name": "Ones"}, "gamma_initializer": {"config": {}, "class_name": "Ones"}, "gamma_regularizer": null, "beta_initializer": {"config": {}, "class_name": "Zeros"}, "name": "bn3b_branch2b", "scale": true, "epsilon": 0.001, "beta_constraint": null, "axis": 1, "center": true}, "class_name": "BatchNormalization", "name": "bn3b_branch2b", "inbound_nodes": [[["res3b_branch2b", 0, 0, {}]]]}, {"config": {"activation": "relu", "trainable": false, "name": "activation_15"}, "class_name": "Activation", "name": "activation_15", "inbound_nodes": [[["bn3b_branch2b", 0, 0, {}]]]}, {"config": {"bias_constraint": null, "activity_regularizer": null, "trainable": false, "bias_regularizer": null, "strides": [1, 1], "activation": "linear", "padding": "valid", "name": "res3b_branch2c", "kernel_initializer": {"config": {"distribution": "uniform", "scale": 1.0, "mode": "fan_avg", "seed": null}, "class_name": "VarianceScaling"}, "dilation_rate": [1, 1], "kernel_size": [1, 1], "data_format": "channels_first", "use_bias": true, "kernel_regularizer": null, "filters": 512, "kernel_constraint": null, "bias_initializer": {"config": {}, "class_name": "Zeros"}}, "class_name": "Conv2D", "name": "res3b_branch2c", "inbound_nodes": [[["activation_15", 0, 0, {}]]]}, {"config": {"moving_mean_initializer": {"config": {}, "class_name": "Zeros"}, "momentum": 0.99, "gamma_constraint": null, "trainable": false, "beta_regularizer": null, "moving_variance_initializer": {"config": {}, "class_name": "Ones"}, "gamma_initializer": {"config": {}, "class_name": "Ones"}, "gamma_regularizer": null, "beta_initializer": {"config": {}, "class_name": "Zeros"}, "name": "bn3b_branch2c", "scale": true, "epsilon": 0.001, "beta_constraint": null, "axis": 1, "center": true}, "class_name": "BatchNormalization", "name": "bn3b_branch2c", "inbound_nodes": [[["res3b_branch2c", 0, 0, {}]]]}, {"config": {"trainable": false, "name": "add_5"}, "class_name": "Add", "name": "add_5", "inbound_nodes": [[["bn3b_branch2c", 0, 0, {}], ["activation_13", 0, 0, {}]]]}, {"config": {"activation": "relu", "trainable": false, "name": "activation_16"}, "class_name": "Activation", "name": "activation_16", "inbound_nodes": [[["add_5", 0, 0, {}]]]}, {"config": {"bias_constraint": null, "activity_regularizer": null, "trainable": false, "bias_regularizer": null, "strides": [1, 1], "activation": "linear", "padding": "valid", "name": "res3c_branch2a", "kernel_initializer": {"config": {"distribution": "uniform", "scale": 1.0, "mode": "fan_avg", "seed": null}, "class_name": "VarianceScaling"}, "dilation_rate": [1, 1], "kernel_size": [1, 1], "data_format": "channels_first", "use_bias": true, "kernel_regularizer": null, "filters": 128, "kernel_constraint": null, "bias_initializer": {"config": {}, "class_name": "Zeros"}}, "class_name": "Conv2D", "name": "res3c_branch2a", "inbound_nodes": [[["activation_16", 0, 0, {}]]]}, {"config": {"moving_mean_initializer": {"config": {}, "class_name": "Zeros"}, "momentum": 0.99, "gamma_constraint": null, "trainable": false, "beta_regularizer": null, "moving_variance_initializer": {"config": {}, "class_name": "Ones"}, "gamma_initializer": {"config": {}, "class_name": "Ones"}, "gamma_regularizer": null, "beta_initializer": {"config": {}, "class_name": "Zeros"}, "name": "bn3c_branch2a", "scale": true, "epsilon": 0.001, "beta_constraint": null, "axis": 1, "center": true}, "class_name": "BatchNormalization", "name": "bn3c_branch2a", "inbound_nodes": [[["res3c_branch2a", 0, 0, {}]]]}, {"config": {"activation": "relu", "trainable": false, "name": "activation_17"}, "class_name": "Activation", "name": "activation_17", "inbound_nodes": [[["bn3c_branch2a", 0, 0, {}]]]}, {"config": {"bias_constraint": null, "activity_regularizer": null, "trainable": false, "bias_regularizer": null, "strides": [1, 1], "activation": "linear", "padding": "same", "name": "res3c_branch2b", "kernel_initializer": {"config": {"distribution": "uniform", "scale": 1.0, "mode": "fan_avg", "seed": null}, "class_name": "VarianceScaling"}, "dilation_rate": [1, 1], "kernel_size": [3, 3], "data_format": "channels_first", "use_bias": true, "kernel_regularizer": null, "filters": 128, "kernel_constraint": null, "bias_initializer": {"config": {}, "class_name": "Zeros"}}, "class_name": "Conv2D", "name": "res3c_branch2b", "inbound_nodes": [[["activation_17", 0, 0, {}]]]}, {"config": {"moving_mean_initializer": {"config": {}, "class_name": "Zeros"}, "momentum": 0.99, "gamma_constraint": null, "trainable": false, "beta_regularizer": null, "moving_variance_initializer": {"config": {}, "class_name": "Ones"}, "gamma_initializer": {"config": {}, "class_name": "Ones"}, "gamma_regularizer": null, "beta_initializer": {"config": {}, "class_name": "Zeros"}, "name": "bn3c_branch2b", "scale": true, "epsilon": 0.001, "beta_constraint": null, "axis": 1, "center": true}, "class_name": "BatchNormalization", "name": "bn3c_branch2b", "inbound_nodes": [[["res3c_branch2b", 0, 0, {}]]]}, {"config": {"activation": "relu", "trainable": false, "name": "activation_18"}, "class_name": "Activation", "name": "activation_18", "inbound_nodes": [[["bn3c_branch2b", 0, 0, {}]]]}, {"config": {"bias_constraint": null, "activity_regularizer": null, "trainable": false, "bias_regularizer": null, "strides": [1, 1], "activation": "linear", "padding": "valid", "name": "res3c_branch2c", "kernel_initializer": {"config": {"distribution": "uniform", "scale": 1.0, "mode": "fan_avg", "seed": null}, "class_name": "VarianceScaling"}, "dilation_rate": [1, 1], "kernel_size": [1, 1], "data_format": "channels_first", "use_bias": true, "kernel_regularizer": null, "filters": 512, "kernel_constraint": null, "bias_initializer": {"config": {}, "class_name": "Zeros"}}, "class_name": "Conv2D", "name": "res3c_branch2c", "inbound_nodes": [[["activation_18", 0, 0, {}]]]}, {"config": {"moving_mean_initializer": {"config": {}, "class_name": "Zeros"}, "momentum": 0.99, "gamma_constraint": null, "trainable": false, "beta_regularizer": null, "moving_variance_initializer": {"config": {}, "class_name": "Ones"}, "gamma_initializer": {"config": {}, "class_name": "Ones"}, "gamma_regularizer": null, "beta_initializer": {"config": {}, "class_name": "Zeros"}, "name": "bn3c_branch2c", "scale": true, "epsilon": 0.001, "beta_constraint": null, "axis": 1, "center": true}, "class_name": "BatchNormalization", "name": "bn3c_branch2c", "inbound_nodes": [[["res3c_branch2c", 0, 0, {}]]]}, {"config": {"trainable": false, "name": "add_6"}, "class_name": "Add", "name": "add_6", "inbound_nodes": [[["bn3c_branch2c", 0, 0, {}], ["activation_16", 0, 0, {}]]]}, {"config": {"activation": "relu", "trainable": false, "name": "activation_19"}, "class_name": "Activation", "name": "activation_19", "inbound_nodes": [[["add_6", 0, 0, {}]]]}, {"config": {"bias_constraint": null, "activity_regularizer": null, "trainable": false, "bias_regularizer": null, "strides": [1, 1], "activation": "linear", "padding": "valid", "name": "res3d_branch2a", "kernel_initializer": {"config": {"distribution": "uniform", "scale": 1.0, "mode": "fan_avg", "seed": null}, "class_name": "VarianceScaling"}, "dilation_rate": [1, 1], "kernel_size": [1, 1], "data_format": "channels_first", "use_bias": true, "kernel_regularizer": null, "filters": 128, "kernel_constraint": null, "bias_initializer": {"config": {}, "class_name": "Zeros"}}, "class_name": "Conv2D", "name": "res3d_branch2a", "inbound_nodes": [[["activation_19", 0, 0, {}]]]}, {"config": {"moving_mean_initializer": {"config": {}, "class_name": "Zeros"}, "momentum": 0.99, "gamma_constraint": null, "trainable": false, "beta_regularizer": null, "moving_variance_initializer": {"config": {}, "class_name": "Ones"}, "gamma_initializer": {"config": {}, "class_name": "Ones"}, "gamma_regularizer": null, "beta_initializer": {"config": {}, "class_name": "Zeros"}, "name": "bn3d_branch2a", "scale": true, "epsilon": 0.001, "beta_constraint": null, "axis": 1, "center": true}, "class_name": "BatchNormalization", "name": "bn3d_branch2a", "inbound_nodes": [[["res3d_branch2a", 0, 0, {}]]]}, {"config": {"activation": "relu", "trainable": false, "name": "activation_20"}, "class_name": "Activation", "name": "activation_20", "inbound_nodes": [[["bn3d_branch2a", 0, 0, {}]]]}, {"config": {"bias_constraint": null, "activity_regularizer": null, "trainable": false, "bias_regularizer": null, "strides": [1, 1], "activation": "linear", "padding": "same", "name": "res3d_branch2b", "kernel_initializer": {"config": {"distribution": "uniform", "scale": 1.0, "mode": "fan_avg", "seed": null}, "class_name": "VarianceScaling"}, "dilation_rate": [1, 1], "kernel_size": [3, 3], "data_format": "channels_first", "use_bias": true, "kernel_regularizer": null, "filters": 128, "kernel_constraint": null, "bias_initializer": {"config": {}, "class_name": "Zeros"}}, "class_name": "Conv2D", "name": "res3d_branch2b", "inbound_nodes": [[["activation_20", 0, 0, {}]]]}, {"config": {"moving_mean_initializer": {"config": {}, "class_name": "Zeros"}, "momentum": 0.99, "gamma_constraint": null, "trainable": false, "beta_regularizer": null, "moving_variance_initializer": {"config": {}, "class_name": "Ones"}, "gamma_initializer": {"config": {}, "class_name": "Ones"}, "gamma_regularizer": null, "beta_initializer": {"config": {}, "class_name": "Zeros"}, "name": "bn3d_branch2b", "scale": true, "epsilon": 0.001, "beta_constraint": null, "axis": 1, "center": true}, "class_name": "BatchNormalization", "name": "bn3d_branch2b", "inbound_nodes": [[["res3d_branch2b", 0, 0, {}]]]}, {"config": {"activation": "relu", "trainable": false, "name": "activation_21"}, "class_name": "Activation", "name": "activation_21", "inbound_nodes": [[["bn3d_branch2b", 0, 0, {}]]]}, {"config": {"bias_constraint": null, "activity_regularizer": null, "trainable": false, "bias_regularizer": null, "strides": [1, 1], "activation": "linear", "padding": "valid", "name": "res3d_branch2c", "kernel_initializer": {"config": {"distribution": "uniform", "scale": 1.0, "mode": "fan_avg", "seed": null}, "class_name": "VarianceScaling"}, "dilation_rate": [1, 1], "kernel_size": [1, 1], "data_format": "channels_first", "use_bias": true, "kernel_regularizer": null, "filters": 512, "kernel_constraint": null, "bias_initializer": {"config": {}, "class_name": "Zeros"}}, "class_name": "Conv2D", "name": "res3d_branch2c", "inbound_nodes": [[["activation_21", 0, 0, {}]]]}, {"config": {"moving_mean_initializer": {"config": {}, "class_name": "Zeros"}, "momentum": 0.99, "gamma_constraint": null, "trainable": false, "beta_regularizer": null, "moving_variance_initializer": {"config": {}, "class_name": "Ones"}, "gamma_initializer": {"config": {}, "class_name": "Ones"}, "gamma_regularizer": null, "beta_initializer": {"config": {}, "class_name": "Zeros"}, "name": "bn3d_branch2c", "scale": true, "epsilon": 0.001, "beta_constraint": null, "axis": 1, "center": true}, "class_name": "BatchNormalization", "name": "bn3d_branch2c", "inbound_nodes": [[["res3d_branch2c", 0, 0, {}]]]}, {"config": {"trainable": false, "name": "add_7"}, "class_name": "Add", "name": "add_7", "inbound_nodes": [[["bn3d_branch2c", 0, 0, {}], ["activation_19", 0, 0, {}]]]}, {"config": {"activation": "relu", "trainable": false, "name": "activation_22"}, "class_name": "Activation", "name": "activation_22", "inbound_nodes": [[["add_7", 0, 0, {}]]]}, {"config": {"bias_constraint": null, "activity_regularizer": null, "trainable": false, "bias_regularizer": null, "strides": [2, 2], "activation": "linear", "padding": "valid", "name": "res4a_branch2a", "kernel_initializer": {"config": {"distribution": "uniform", "scale": 1.0, "mode": "fan_avg", "seed": null}, "class_name": "VarianceScaling"}, "dilation_rate": [1, 1], "kernel_size": [1, 1], "data_format": "channels_first", "use_bias": true, "kernel_regularizer": null, "filters": 256, "kernel_constraint": null, "bias_initializer": {"config": {}, "class_name": "Zeros"}}, "class_name": "Conv2D", "name": "res4a_branch2a", "inbound_nodes": [[["activation_22", 0, 0, {}]]]}, {"config": {"moving_mean_initializer": {"config": {}, "class_name": "Zeros"}, "momentum": 0.99, "gamma_constraint": null, "trainable": false, "beta_regularizer": null, "moving_variance_initializer": {"config": {}, "class_name": "Ones"}, "gamma_initializer": {"config": {}, "class_name": "Ones"}, "gamma_regularizer": null, "beta_initializer": {"config": {}, "class_name": "Zeros"}, "name": "bn4a_branch2a", "scale": true, "epsilon": 0.001, "beta_constraint": null, "axis": 1, "center": true}, "class_name": "BatchNormalization", "name": "bn4a_branch2a", "inbound_nodes": [[["res4a_branch2a", 0, 0, {}]]]}, {"config": {"activation": "relu", "trainable": false, "name": "activation_23"}, "class_name": "Activation", "name": "activation_23", "inbound_nodes": [[["bn4a_branch2a", 0, 0, {}]]]}, {"config": {"bias_constraint": null, "activity_regularizer": null, "trainable": false, "bias_regularizer": null, "strides": [1, 1], "activation": "linear", "padding": "same", "name": "res4a_branch2b", "kernel_initializer": {"config": {"distribution": "uniform", "scale": 1.0, "mode": "fan_avg", "seed": null}, "class_name": "VarianceScaling"}, "dilation_rate": [1, 1], "kernel_size": [3, 3], "data_format": "channels_first", "use_bias": true, "kernel_regularizer": null, "filters": 256, "kernel_constraint": null, "bias_initializer": {"config": {}, "class_name": "Zeros"}}, "class_name": "Conv2D", "name": "res4a_branch2b", "inbound_nodes": [[["activation_23", 0, 0, {}]]]}, {"config": {"moving_mean_initializer": {"config": {}, "class_name": "Zeros"}, "momentum": 0.99, "gamma_constraint": null, "trainable": false, "beta_regularizer": null, "moving_variance_initializer": {"config": {}, "class_name": "Ones"}, "gamma_initializer": {"config": {}, "class_name": "Ones"}, "gamma_regularizer": null, "beta_initializer": {"config": {}, "class_name": "Zeros"}, "name": "bn4a_branch2b", "scale": true, "epsilon": 0.001, "beta_constraint": null, "axis": 1, "center": true}, "class_name": "BatchNormalization", "name": "bn4a_branch2b", "inbound_nodes": [[["res4a_branch2b", 0, 0, {}]]]}, {"config": {"activation": "relu", "trainable": false, "name": "activation_24"}, "class_name": "Activation", "name": "activation_24", "inbound_nodes": [[["bn4a_branch2b", 0, 0, {}]]]}, {"config": {"bias_constraint": null, "activity_regularizer": null, "trainable": false, "bias_regularizer": null, "strides": [1, 1], "activation": "linear", "padding": "valid", "name": "res4a_branch2c", "kernel_initializer": {"config": {"distribution": "uniform", "scale": 1.0, "mode": "fan_avg", "seed": null}, "class_name": "VarianceScaling"}, "dilation_rate": [1, 1], "kernel_size": [1, 1], "data_format": "channels_first", "use_bias": true, "kernel_regularizer": null, "filters": 1024, "kernel_constraint": null, "bias_initializer": {"config": {}, "class_name": "Zeros"}}, "class_name": "Conv2D", "name": "res4a_branch2c", "inbound_nodes": [[["activation_24", 0, 0, {}]]]}, {"config": {"bias_constraint": null, "activity_regularizer": null, "trainable": false, "bias_regularizer": null, "strides": [2, 2], "activation": "linear", "padding": "valid", "name": "res4a_branch1", "kernel_initializer": {"config": {"distribution": "uniform", "scale": 1.0, "mode": "fan_avg", "seed": null}, "class_name": "VarianceScaling"}, "dilation_rate": [1, 1], "kernel_size": [1, 1], "data_format": "channels_first", "use_bias": true, "kernel_regularizer": null, "filters": 1024, "kernel_constraint": null, "bias_initializer": {"config": {}, "class_name": "Zeros"}}, "class_name": "Conv2D", "name": "res4a_branch1", "inbound_nodes": [[["activation_22", 0, 0, {}]]]}, {"config": {"moving_mean_initializer": {"config": {}, "class_name": "Zeros"}, "momentum": 0.99, "gamma_constraint": null, "trainable": false, "beta_regularizer": null, "moving_variance_initializer": {"config": {}, "class_name": "Ones"}, "gamma_initializer": {"config": {}, "class_name": "Ones"}, "gamma_regularizer": null, "beta_initializer": {"config": {}, "class_name": "Zeros"}, "name": "bn4a_branch2c", "scale": true, "epsilon": 0.001, "beta_constraint": null, "axis": 1, "center": true}, "class_name": "BatchNormalization", "name": "bn4a_branch2c", "inbound_nodes": [[["res4a_branch2c", 0, 0, {}]]]}, {"config": {"moving_mean_initializer": {"config": {}, "class_name": "Zeros"}, "momentum": 0.99, "gamma_constraint": null, "trainable": false, "beta_regularizer": null, "moving_variance_initializer": {"config": {}, "class_name": "Ones"}, "gamma_initializer": {"config": {}, "class_name": "Ones"}, "gamma_regularizer": null, "beta_initializer": {"config": {}, "class_name": "Zeros"}, "name": "bn4a_branch1", "scale": true, "epsilon": 0.001, "beta_constraint": null, "axis": 1, "center": true}, "class_name": "BatchNormalization", "name": "bn4a_branch1", "inbound_nodes": [[["res4a_branch1", 0, 0, {}]]]}, {"config": {"trainable": false, "name": "add_8"}, "class_name": "Add", "name": "add_8", "inbound_nodes": [[["bn4a_branch2c", 0, 0, {}], ["bn4a_branch1", 0, 0, {}]]]}, {"config": {"activation": "relu", "trainable": false, "name": "activation_25"}, "class_name": "Activation", "name": "activation_25", "inbound_nodes": [[["add_8", 0, 0, {}]]]}, {"config": {"bias_constraint": null, "activity_regularizer": null, "trainable": false, "bias_regularizer": null, "strides": [1, 1], "activation": "linear", "padding": "valid", "name": "res4b_branch2a", "kernel_initializer": {"config": {"distribution": "uniform", "scale": 1.0, "mode": "fan_avg", "seed": null}, "class_name": "VarianceScaling"}, "dilation_rate": [1, 1], "kernel_size": [1, 1], "data_format": "channels_first", "use_bias": true, "kernel_regularizer": null, "filters": 256, "kernel_constraint": null, "bias_initializer": {"config": {}, "class_name": "Zeros"}}, "class_name": "Conv2D", "name": "res4b_branch2a", "inbound_nodes": [[["activation_25", 0, 0, {}]]]}, {"config": {"moving_mean_initializer": {"config": {}, "class_name": "Zeros"}, "momentum": 0.99, "gamma_constraint": null, "trainable": false, "beta_regularizer": null, "moving_variance_initializer": {"config": {}, "class_name": "Ones"}, "gamma_initializer": {"config": {}, "class_name": "Ones"}, "gamma_regularizer": null, "beta_initializer": {"config": {}, "class_name": "Zeros"}, "name": "bn4b_branch2a", "scale": true, "epsilon": 0.001, "beta_constraint": null, "axis": 1, "center": true}, "class_name": "BatchNormalization", "name": "bn4b_branch2a", "inbound_nodes": [[["res4b_branch2a", 0, 0, {}]]]}, {"config": {"activation": "relu", "trainable": false, "name": "activation_26"}, "class_name": "Activation", "name": "activation_26", "inbound_nodes": [[["bn4b_branch2a", 0, 0, {}]]]}, {"config": {"bias_constraint": null, "activity_regularizer": null, "trainable": false, "bias_regularizer": null, "strides": [1, 1], "activation": "linear", "padding": "same", "name": "res4b_branch2b", "kernel_initializer": {"config": {"distribution": "uniform", "scale": 1.0, "mode": "fan_avg", "seed": null}, "class_name": "VarianceScaling"}, "dilation_rate": [1, 1], "kernel_size": [3, 3], "data_format": "channels_first", "use_bias": true, "kernel_regularizer": null, "filters": 256, "kernel_constraint": null, "bias_initializer": {"config": {}, "class_name": "Zeros"}}, "class_name": "Conv2D", "name": "res4b_branch2b", "inbound_nodes": [[["activation_26", 0, 0, {}]]]}, {"config": {"moving_mean_initializer": {"config": {}, "class_name": "Zeros"}, "momentum": 0.99, "gamma_constraint": null, "trainable": false, "beta_regularizer": null, "moving_variance_initializer": {"config": {}, "class_name": "Ones"}, "gamma_initializer": {"config": {}, "class_name": "Ones"}, "gamma_regularizer": null, "beta_initializer": {"config": {}, "class_name": "Zeros"}, "name": "bn4b_branch2b", "scale": true, "epsilon": 0.001, "beta_constraint": null, "axis": 1, "center": true}, "class_name": "BatchNormalization", "name": "bn4b_branch2b", "inbound_nodes": [[["res4b_branch2b", 0, 0, {}]]]}, {"config": {"activation": "relu", "trainable": false, "name": "activation_27"}, "class_name": "Activation", "name": "activation_27", "inbound_nodes": [[["bn4b_branch2b", 0, 0, {}]]]}, {"config": {"bias_constraint": null, "activity_regularizer": null, "trainable": false, "bias_regularizer": null, "strides": [1, 1], "activation": "linear", "padding": "valid", "name": "res4b_branch2c", "kernel_initializer": {"config": {"distribution": "uniform", "scale": 1.0, "mode": "fan_avg", "seed": null}, "class_name": "VarianceScaling"}, "dilation_rate": [1, 1], "kernel_size": [1, 1], "data_format": "channels_first", "use_bias": true, "kernel_regularizer": null, "filters": 1024, "kernel_constraint": null, "bias_initializer": {"config": {}, "class_name": "Zeros"}}, "class_name": "Conv2D", "name": "res4b_branch2c", "inbound_nodes": [[["activation_27", 0, 0, {}]]]}, {"config": {"moving_mean_initializer": {"config": {}, "class_name": "Zeros"}, "momentum": 0.99, "gamma_constraint": null, "trainable": false, "beta_regularizer": null, "moving_variance_initializer": {"config": {}, "class_name": "Ones"}, "gamma_initializer": {"config": {}, "class_name": "Ones"}, "gamma_regularizer": null, "beta_initializer": {"config": {}, "class_name": "Zeros"}, "name": "bn4b_branch2c", "scale": true, "epsilon": 0.001, "beta_constraint": null, "axis": 1, "center": true}, "class_name": "BatchNormalization", "name": "bn4b_branch2c", "inbound_nodes": [[["res4b_branch2c", 0, 0, {}]]]}, {"config": {"trainable": false, "name": "add_9"}, "class_name": "Add", "name": "add_9", "inbound_nodes": [[["bn4b_branch2c", 0, 0, {}], ["activation_25", 0, 0, {}]]]}, {"config": {"activation": "relu", "trainable": false, "name": "activation_28"}, "class_name": "Activation", "name": "activation_28", "inbound_nodes": [[["add_9", 0, 0, {}]]]}, {"config": {"bias_constraint": null, "activity_regularizer": null, "trainable": false, "bias_regularizer": null, "strides": [1, 1], "activation": "linear", "padding": "valid", "name": "res4c_branch2a", "kernel_initializer": {"config": {"distribution": "uniform", "scale": 1.0, "mode": "fan_avg", "seed": null}, "class_name": "VarianceScaling"}, "dilation_rate": [1, 1], "kernel_size": [1, 1], "data_format": "channels_first", "use_bias": true, "kernel_regularizer": null, "filters": 256, "kernel_constraint": null, "bias_initializer": {"config": {}, "class_name": "Zeros"}}, "class_name": "Conv2D", "name": "res4c_branch2a", "inbound_nodes": [[["activation_28", 0, 0, {}]]]}, {"config": {"moving_mean_initializer": {"config": {}, "class_name": "Zeros"}, "momentum": 0.99, "gamma_constraint": null, "trainable": false, "beta_regularizer": null, "moving_variance_initializer": {"config": {}, "class_name": "Ones"}, "gamma_initializer": {"config": {}, "class_name": "Ones"}, "gamma_regularizer": null, "beta_initializer": {"config": {}, "class_name": "Zeros"}, "name": "bn4c_branch2a", "scale": true, "epsilon": 0.001, "beta_constraint": null, "axis": 1, "center": true}, "class_name": "BatchNormalization", "name": "bn4c_branch2a", "inbound_nodes": [[["res4c_branch2a", 0, 0, {}]]]}, {"config": {"activation": "relu", "trainable": false, "name": "activation_29"}, "class_name": "Activation", "name": "activation_29", "inbound_nodes": [[["bn4c_branch2a", 0, 0, {}]]]}, {"config": {"bias_constraint": null, "activity_regularizer": null, "trainable": false, "bias_regularizer": null, "strides": [1, 1], "activation": "linear", "padding": "same", "name": "res4c_branch2b", "kernel_initializer": {"config": {"distribution": "uniform", "scale": 1.0, "mode": "fan_avg", "seed": null}, "class_name": "VarianceScaling"}, "dilation_rate": [1, 1], "kernel_size": [3, 3], "data_format": "channels_first", "use_bias": true, "kernel_regularizer": null, "filters": 256, "kernel_constraint": null, "bias_initializer": {"config": {}, "class_name": "Zeros"}}, "class_name": "Conv2D", "name": "res4c_branch2b", "inbound_nodes": [[["activation_29", 0, 0, {}]]]}, {"config": {"moving_mean_initializer": {"config": {}, "class_name": "Zeros"}, "momentum": 0.99, "gamma_constraint": null, "trainable": false, "beta_regularizer": null, "moving_variance_initializer": {"config": {}, "class_name": "Ones"}, "gamma_initializer": {"config": {}, "class_name": "Ones"}, "gamma_regularizer": null, "beta_initializer": {"config": {}, "class_name": "Zeros"}, "name": "bn4c_branch2b", "scale": true, "epsilon": 0.001, "beta_constraint": null, "axis": 1, "center": true}, "class_name": "BatchNormalization", "name": "bn4c_branch2b", "inbound_nodes": [[["res4c_branch2b", 0, 0, {}]]]}, {"config": {"activation": "relu", "trainable": false, "name": "activation_30"}, "class_name": "Activation", "name": "activation_30", "inbound_nodes": [[["bn4c_branch2b", 0, 0, {}]]]}, {"config": {"bias_constraint": null, "activity_regularizer": null, "trainable": false, "bias_regularizer": null, "strides": [1, 1], "activation": "linear", "padding": "valid", "name": "res4c_branch2c", "kernel_initializer": {"config": {"distribution": "uniform", "scale": 1.0, "mode": "fan_avg", "seed": null}, "class_name": "VarianceScaling"}, "dilation_rate": [1, 1], "kernel_size": [1, 1], "data_format": "channels_first", "use_bias": true, "kernel_regularizer": null, "filters": 1024, "kernel_constraint": null, "bias_initializer": {"config": {}, "class_name": "Zeros"}}, "class_name": "Conv2D", "name": "res4c_branch2c", "inbound_nodes": [[["activation_30", 0, 0, {}]]]}, {"config": {"moving_mean_initializer": {"config": {}, "class_name": "Zeros"}, "momentum": 0.99, "gamma_constraint": null, "trainable": false, "beta_regularizer": null, "moving_variance_initializer": {"config": {}, "class_name": "Ones"}, "gamma_initializer": {"config": {}, "class_name": "Ones"}, "gamma_regularizer": null, "beta_initializer": {"config": {}, "class_name": "Zeros"}, "name": "bn4c_branch2c", "scale": true, "epsilon": 0.001, "beta_constraint": null, "axis": 1, "center": true}, "class_name": "BatchNormalization", "name": "bn4c_branch2c", "inbound_nodes": [[["res4c_branch2c", 0, 0, {}]]]}, {"config": {"trainable": false, "name": "add_10"}, "class_name": "Add", "name": "add_10", "inbound_nodes": [[["bn4c_branch2c", 0, 0, {}], ["activation_28", 0, 0, {}]]]}, {"config": {"activation": "relu", "trainable": false, "name": "activation_31"}, "class_name": "Activation", "name": "activation_31", "inbound_nodes": [[["add_10", 0, 0, {}]]]}, {"config": {"bias_constraint": null, "activity_regularizer": null, "trainable": false, "bias_regularizer": null, "strides": [1, 1], "activation": "linear", "padding": "valid", "name": "res4d_branch2a", "kernel_initializer": {"config": {"distribution": "uniform", "scale": 1.0, "mode": "fan_avg", "seed": null}, "class_name": "VarianceScaling"}, "dilation_rate": [1, 1], "kernel_size": [1, 1], "data_format": "channels_first", "use_bias": true, "kernel_regularizer": null, "filters": 256, "kernel_constraint": null, "bias_initializer": {"config": {}, "class_name": "Zeros"}}, "class_name": "Conv2D", "name": "res4d_branch2a", "inbound_nodes": [[["activation_31", 0, 0, {}]]]}, {"config": {"moving_mean_initializer": {"config": {}, "class_name": "Zeros"}, "momentum": 0.99, "gamma_constraint": null, "trainable": false, "beta_regularizer": null, "moving_variance_initializer": {"config": {}, "class_name": "Ones"}, "gamma_initializer": {"config": {}, "class_name": "Ones"}, "gamma_regularizer": null, "beta_initializer": {"config": {}, "class_name": "Zeros"}, "name": "bn4d_branch2a", "scale": true, "epsilon": 0.001, "beta_constraint": null, "axis": 1, "center": true}, "class_name": "BatchNormalization", "name": "bn4d_branch2a", "inbound_nodes": [[["res4d_branch2a", 0, 0, {}]]]}, {"config": {"activation": "relu", "trainable": false, "name": "activation_32"}, "class_name": "Activation", "name": "activation_32", "inbound_nodes": [[["bn4d_branch2a", 0, 0, {}]]]}, {"config": {"bias_constraint": null, "activity_regularizer": null, "trainable": false, "bias_regularizer": null, "strides": [1, 1], "activation": "linear", "padding": "same", "name": "res4d_branch2b", "kernel_initializer": {"config": {"distribution": "uniform", "scale": 1.0, "mode": "fan_avg", "seed": null}, "class_name": "VarianceScaling"}, "dilation_rate": [1, 1], "kernel_size": [3, 3], "data_format": "channels_first", "use_bias": true, "kernel_regularizer": null, "filters": 256, "kernel_constraint": null, "bias_initializer": {"config": {}, "class_name": "Zeros"}}, "class_name": "Conv2D", "name": "res4d_branch2b", "inbound_nodes": [[["activation_32", 0, 0, {}]]]}, {"config": {"moving_mean_initializer": {"config": {}, "class_name": "Zeros"}, "momentum": 0.99, "gamma_constraint": null, "trainable": false, "beta_regularizer": null, "moving_variance_initializer": {"config": {}, "class_name": "Ones"}, "gamma_initializer": {"config": {}, "class_name": "Ones"}, "gamma_regularizer": null, "beta_initializer": {"config": {}, "class_name": "Zeros"}, "name": "bn4d_branch2b", "scale": true, "epsilon": 0.001, "beta_constraint": null, "axis": 1, "center": true}, "class_name": "BatchNormalization", "name": "bn4d_branch2b", "inbound_nodes": [[["res4d_branch2b", 0, 0, {}]]]}, {"config": {"activation": "relu", "trainable": false, "name": "activation_33"}, "class_name": "Activation", "name": "activation_33", "inbound_nodes": [[["bn4d_branch2b", 0, 0, {}]]]}, {"config": {"bias_constraint": null, "activity_regularizer": null, "trainable": false, "bias_regularizer": null, "strides": [1, 1], "activation": "linear", "padding": "valid", "name": "res4d_branch2c", "kernel_initializer": {"config": {"distribution": "uniform", "scale": 1.0, "mode": "fan_avg", "seed": null}, "class_name": "VarianceScaling"}, "dilation_rate": [1, 1], "kernel_size": [1, 1], "data_format": "channels_first", "use_bias": true, "kernel_regularizer": null, "filters": 1024, "kernel_constraint": null, "bias_initializer": {"config": {}, "class_name": "Zeros"}}, "class_name": "Conv2D", "name": "res4d_branch2c", "inbound_nodes": [[["activation_33", 0, 0, {}]]]}, {"config": {"moving_mean_initializer": {"config": {}, "class_name": "Zeros"}, "momentum": 0.99, "gamma_constraint": null, "trainable": false, "beta_regularizer": null, "moving_variance_initializer": {"config": {}, "class_name": "Ones"}, "gamma_initializer": {"config": {}, "class_name": "Ones"}, "gamma_regularizer": null, "beta_initializer": {"config": {}, "class_name": "Zeros"}, "name": "bn4d_branch2c", "scale": true, "epsilon": 0.001, "beta_constraint": null, "axis": 1, "center": true}, "class_name": "BatchNormalization", "name": "bn4d_branch2c", "inbound_nodes": [[["res4d_branch2c", 0, 0, {}]]]}, {"config": {"trainable": false, "name": "add_11"}, "class_name": "Add", "name": "add_11", "inbound_nodes": [[["bn4d_branch2c", 0, 0, {}], ["activation_31", 0, 0, {}]]]}, {"config": {"activation": "relu", "trainable": false, "name": "activation_34"}, "class_name": "Activation", "name": "activation_34", "inbound_nodes": [[["add_11", 0, 0, {}]]]}, {"config": {"bias_constraint": null, "activity_regularizer": null, "trainable": false, "bias_regularizer": null, "strides": [1, 1], "activation": "linear", "padding": "valid", "name": "res4e_branch2a", "kernel_initializer": {"config": {"distribution": "uniform", "scale": 1.0, "mode": "fan_avg", "seed": null}, "class_name": "VarianceScaling"}, "dilation_rate": [1, 1], "kernel_size": [1, 1], "data_format": "channels_first", "use_bias": true, "kernel_regularizer": null, "filters": 256, "kernel_constraint": null, "bias_initializer": {"config": {}, "class_name": "Zeros"}}, "class_name": "Conv2D", "name": "res4e_branch2a", "inbound_nodes": [[["activation_34", 0, 0, {}]]]}, {"config": {"moving_mean_initializer": {"config": {}, "class_name": "Zeros"}, "momentum": 0.99, "gamma_constraint": null, "trainable": false, "beta_regularizer": null, "moving_variance_initializer": {"config": {}, "class_name": "Ones"}, "gamma_initializer": {"config": {}, "class_name": "Ones"}, "gamma_regularizer": null, "beta_initializer": {"config": {}, "class_name": "Zeros"}, "name": "bn4e_branch2a", "scale": true, "epsilon": 0.001, "beta_constraint": null, "axis": 1, "center": true}, "class_name": "BatchNormalization", "name": "bn4e_branch2a", "inbound_nodes": [[["res4e_branch2a", 0, 0, {}]]]}, {"config": {"activation": "relu", "trainable": false, "name": "activation_35"}, "class_name": "Activation", "name": "activation_35", "inbound_nodes": [[["bn4e_branch2a", 0, 0, {}]]]}, {"config": {"bias_constraint": null, "activity_regularizer": null, "trainable": false, "bias_regularizer": null, "strides": [1, 1], "activation": "linear", "padding": "same", "name": "res4e_branch2b", "kernel_initializer": {"config": {"distribution": "uniform", "scale": 1.0, "mode": "fan_avg", "seed": null}, "class_name": "VarianceScaling"}, "dilation_rate": [1, 1], "kernel_size": [3, 3], "data_format": "channels_first", "use_bias": true, "kernel_regularizer": null, "filters": 256, "kernel_constraint": null, "bias_initializer": {"config": {}, "class_name": "Zeros"}}, "class_name": "Conv2D", "name": "res4e_branch2b", "inbound_nodes": [[["activation_35", 0, 0, {}]]]}, {"config": {"moving_mean_initializer": {"config": {}, "class_name": "Zeros"}, "momentum": 0.99, "gamma_constraint": null, "trainable": false, "beta_regularizer": null, "moving_variance_initializer": {"config": {}, "class_name": "Ones"}, "gamma_initializer": {"config": {}, "class_name": "Ones"}, "gamma_regularizer": null, "beta_initializer": {"config": {}, "class_name": "Zeros"}, "name": "bn4e_branch2b", "scale": true, "epsilon": 0.001, "beta_constraint": null, "axis": 1, "center": true}, "class_name": "BatchNormalization", "name": "bn4e_branch2b", "inbound_nodes": [[["res4e_branch2b", 0, 0, {}]]]}, {"config": {"activation": "relu", "trainable": false, "name": "activation_36"}, "class_name": "Activation", "name": "activation_36", "inbound_nodes": [[["bn4e_branch2b", 0, 0, {}]]]}, {"config": {"bias_constraint": null, "activity_regularizer": null, "trainable": false, "bias_regularizer": null, "strides": [1, 1], "activation": "linear", "padding": "valid", "name": "res4e_branch2c", "kernel_initializer": {"config": {"distribution": "uniform", "scale": 1.0, "mode": "fan_avg", "seed": null}, "class_name": "VarianceScaling"}, "dilation_rate": [1, 1], "kernel_size": [1, 1], "data_format": "channels_first", "use_bias": true, "kernel_regularizer": null, "filters": 1024, "kernel_constraint": null, "bias_initializer": {"config": {}, "class_name": "Zeros"}}, "class_name": "Conv2D", "name": "res4e_branch2c", "inbound_nodes": [[["activation_36", 0, 0, {}]]]}, {"config": {"moving_mean_initializer": {"config": {}, "class_name": "Zeros"}, "momentum": 0.99, "gamma_constraint": null, "trainable": false, "beta_regularizer": null, "moving_variance_initializer": {"config": {}, "class_name": "Ones"}, "gamma_initializer": {"config": {}, "class_name": "Ones"}, "gamma_regularizer": null, "beta_initializer": {"config": {}, "class_name": "Zeros"}, "name": "bn4e_branch2c", "scale": true, "epsilon": 0.001, "beta_constraint": null, "axis": 1, "center": true}, "class_name": "BatchNormalization", "name": "bn4e_branch2c", "inbound_nodes": [[["res4e_branch2c", 0, 0, {}]]]}, {"config": {"trainable": false, "name": "add_12"}, "class_name": "Add", "name": "add_12", "inbound_nodes": [[["bn4e_branch2c", 0, 0, {}], ["activation_34", 0, 0, {}]]]}, {"config": {"activation": "relu", "trainable": false, "name": "activation_37"}, "class_name": "Activation", "name": "activation_37", "inbound_nodes": [[["add_12", 0, 0, {}]]]}, {"config": {"bias_constraint": null, "activity_regularizer": null, "trainable": false, "bias_regularizer": null, "strides": [1, 1], "activation": "linear", "padding": "valid", "name": "res4f_branch2a", "kernel_initializer": {"config": {"distribution": "uniform", "scale": 1.0, "mode": "fan_avg", "seed": null}, "class_name": "VarianceScaling"}, "dilation_rate": [1, 1], "kernel_size": [1, 1], "data_format": "channels_first", "use_bias": true, "kernel_regularizer": null, "filters": 256, "kernel_constraint": null, "bias_initializer": {"config": {}, "class_name": "Zeros"}}, "class_name": "Conv2D", "name": "res4f_branch2a", "inbound_nodes": [[["activation_37", 0, 0, {}]]]}, {"config": {"moving_mean_initializer": {"config": {}, "class_name": "Zeros"}, "momentum": 0.99, "gamma_constraint": null, "trainable": false, "beta_regularizer": null, "moving_variance_initializer": {"config": {}, "class_name": "Ones"}, "gamma_initializer": {"config": {}, "class_name": "Ones"}, "gamma_regularizer": null, "beta_initializer": {"config": {}, "class_name": "Zeros"}, "name": "bn4f_branch2a", "scale": true, "epsilon": 0.001, "beta_constraint": null, "axis": 1, "center": true}, "class_name": "BatchNormalization", "name": "bn4f_branch2a", "inbound_nodes": [[["res4f_branch2a", 0, 0, {}]]]}, {"config": {"activation": "relu", "trainable": false, "name": "activation_38"}, "class_name": "Activation", "name": "activation_38", "inbound_nodes": [[["bn4f_branch2a", 0, 0, {}]]]}, {"config": {"bias_constraint": null, "activity_regularizer": null, "trainable": false, "bias_regularizer": null, "strides": [1, 1], "activation": "linear", "padding": "same", "name": "res4f_branch2b", "kernel_initializer": {"config": {"distribution": "uniform", "scale": 1.0, "mode": "fan_avg", "seed": null}, "class_name": "VarianceScaling"}, "dilation_rate": [1, 1], "kernel_size": [3, 3], "data_format": "channels_first", "use_bias": true, "kernel_regularizer": null, "filters": 256, "kernel_constraint": null, "bias_initializer": {"config": {}, "class_name": "Zeros"}}, "class_name": "Conv2D", "name": "res4f_branch2b", "inbound_nodes": [[["activation_38", 0, 0, {}]]]}, {"config": {"moving_mean_initializer": {"config": {}, "class_name": "Zeros"}, "momentum": 0.99, "gamma_constraint": null, "trainable": false, "beta_regularizer": null, "moving_variance_initializer": {"config": {}, "class_name": "Ones"}, "gamma_initializer": {"config": {}, "class_name": "Ones"}, "gamma_regularizer": null, "beta_initializer": {"config": {}, "class_name": "Zeros"}, "name": "bn4f_branch2b", "scale": true, "epsilon": 0.001, "beta_constraint": null, "axis": 1, "center": true}, "class_name": "BatchNormalization", "name": "bn4f_branch2b", "inbound_nodes": [[["res4f_branch2b", 0, 0, {}]]]}, {"config": {"activation": "relu", "trainable": false, "name": "activation_39"}, "class_name": "Activation", "name": "activation_39", "inbound_nodes": [[["bn4f_branch2b", 0, 0, {}]]]}, {"config": {"bias_constraint": null, "activity_regularizer": null, "trainable": false, "bias_regularizer": null, "strides": [1, 1], "activation": "linear", "padding": "valid", "name": "res4f_branch2c", "kernel_initializer": {"config": {"distribution": "uniform", "scale": 1.0, "mode": "fan_avg", "seed": null}, "class_name": "VarianceScaling"}, "dilation_rate": [1, 1], "kernel_size": [1, 1], "data_format": "channels_first", "use_bias": true, "kernel_regularizer": null, "filters": 1024, "kernel_constraint": null, "bias_initializer": {"config": {}, "class_name": "Zeros"}}, "class_name": "Conv2D", "name": "res4f_branch2c", "inbound_nodes": [[["activation_39", 0, 0, {}]]]}, {"config": {"moving_mean_initializer": {"config": {}, "class_name": "Zeros"}, "momentum": 0.99, "gamma_constraint": null, "trainable": false, "beta_regularizer": null, "moving_variance_initializer": {"config": {}, "class_name": "Ones"}, "gamma_initializer": {"config": {}, "class_name": "Ones"}, "gamma_regularizer": null, "beta_initializer": {"config": {}, "class_name": "Zeros"}, "name": "bn4f_branch2c", "scale": true, "epsilon": 0.001, "beta_constraint": null, "axis": 1, "center": true}, "class_name": "BatchNormalization", "name": "bn4f_branch2c", "inbound_nodes": [[["res4f_branch2c", 0, 0, {}]]]}, {"config": {"trainable": false, "name": "add_13"}, "class_name": "Add", "name": "add_13", "inbound_nodes": [[["bn4f_branch2c", 0, 0, {}], ["activation_37", 0, 0, {}]]]}, {"config": {"activation": "relu", "trainable": false, "name": "activation_40"}, "class_name": "Activation", "name": "activation_40", "inbound_nodes": [[["add_13", 0, 0, {}]]]}, {"config": {"bias_constraint": null, "activity_regularizer": null, "trainable": false, "bias_regularizer": null, "strides": [2, 2], "activation": "linear", "padding": "valid", "name": "res5a_branch2a", "kernel_initializer": {"config": {"distribution": "uniform", "scale": 1.0, "mode": "fan_avg", "seed": null}, "class_name": "VarianceScaling"}, "dilation_rate": [1, 1], "kernel_size": [1, 1], "data_format": "channels_first", "use_bias": true, "kernel_regularizer": null, "filters": 512, "kernel_constraint": null, "bias_initializer": {"config": {}, "class_name": "Zeros"}}, "class_name": "Conv2D", "name": "res5a_branch2a", "inbound_nodes": [[["activation_40", 0, 0, {}]]]}, {"config": {"moving_mean_initializer": {"config": {}, "class_name": "Zeros"}, "momentum": 0.99, "gamma_constraint": null, "trainable": false, "beta_regularizer": null, "moving_variance_initializer": {"config": {}, "class_name": "Ones"}, "gamma_initializer": {"config": {}, "class_name": "Ones"}, "gamma_regularizer": null, "beta_initializer": {"config": {}, "class_name": "Zeros"}, "name": "bn5a_branch2a", "scale": true, "epsilon": 0.001, "beta_constraint": null, "axis": 1, "center": true}, "class_name": "BatchNormalization", "name": "bn5a_branch2a", "inbound_nodes": [[["res5a_branch2a", 0, 0, {}]]]}, {"config": {"activation": "relu", "trainable": false, "name": "activation_41"}, "class_name": "Activation", "name": "activation_41", "inbound_nodes": [[["bn5a_branch2a", 0, 0, {}]]]}, {"config": {"bias_constraint": null, "activity_regularizer": null, "trainable": false, "bias_regularizer": null, "strides": [1, 1], "activation": "linear", "padding": "same", "name": "res5a_branch2b", "kernel_initializer": {"config": {"distribution": "uniform", "scale": 1.0, "mode": "fan_avg", "seed": null}, "class_name": "VarianceScaling"}, "dilation_rate": [1, 1], "kernel_size": [3, 3], "data_format": "channels_first", "use_bias": true, "kernel_regularizer": null, "filters": 512, "kernel_constraint": null, "bias_initializer": {"config": {}, "class_name": "Zeros"}}, "class_name": "Conv2D", "name": "res5a_branch2b", "inbound_nodes": [[["activation_41", 0, 0, {}]]]}, {"config": {"moving_mean_initializer": {"config": {}, "class_name": "Zeros"}, "momentum": 0.99, "gamma_constraint": null, "trainable": false, "beta_regularizer": null, "moving_variance_initializer": {"config": {}, "class_name": "Ones"}, "gamma_initializer": {"config": {}, "class_name": "Ones"}, "gamma_regularizer": null, "beta_initializer": {"config": {}, "class_name": "Zeros"}, "name": "bn5a_branch2b", "scale": true, "epsilon": 0.001, "beta_constraint": null, "axis": 1, "center": true}, "class_name": "BatchNormalization", "name": "bn5a_branch2b", "inbound_nodes": [[["res5a_branch2b", 0, 0, {}]]]}, {"config": {"activation": "relu", "trainable": false, "name": "activation_42"}, "class_name": "Activation", "name": "activation_42", "inbound_nodes": [[["bn5a_branch2b", 0, 0, {}]]]}, {"config": {"bias_constraint": null, "activity_regularizer": null, "trainable": false, "bias_regularizer": null, "strides": [1, 1], "activation": "linear", "padding": "valid", "name": "res5a_branch2c", "kernel_initializer": {"config": {"distribution": "uniform", "scale": 1.0, "mode": "fan_avg", "seed": null}, "class_name": "VarianceScaling"}, "dilation_rate": [1, 1], "kernel_size": [1, 1], "data_format": "channels_first", "use_bias": true, "kernel_regularizer": null, "filters": 2048, "kernel_constraint": null, "bias_initializer": {"config": {}, "class_name": "Zeros"}}, "class_name": "Conv2D", "name": "res5a_branch2c", "inbound_nodes": [[["activation_42", 0, 0, {}]]]}, {"config": {"bias_constraint": null, "activity_regularizer": null, "trainable": false, "bias_regularizer": null, "strides": [2, 2], "activation": "linear", "padding": "valid", "name": "res5a_branch1", "kernel_initializer": {"config": {"distribution": "uniform", "scale": 1.0, "mode": "fan_avg", "seed": null}, "class_name": "VarianceScaling"}, "dilation_rate": [1, 1], "kernel_size": [1, 1], "data_format": "channels_first", "use_bias": true, "kernel_regularizer": null, "filters": 2048, "kernel_constraint": null, "bias_initializer": {"config": {}, "class_name": "Zeros"}}, "class_name": "Conv2D", "name": "res5a_branch1", "inbound_nodes": [[["activation_40", 0, 0, {}]]]}, {"config": {"moving_mean_initializer": {"config": {}, "class_name": "Zeros"}, "momentum": 0.99, "gamma_constraint": null, "trainable": false, "beta_regularizer": null, "moving_variance_initializer": {"config": {}, "class_name": "Ones"}, "gamma_initializer": {"config": {}, "class_name": "Ones"}, "gamma_regularizer": null, "beta_initializer": {"config": {}, "class_name": "Zeros"}, "name": "bn5a_branch2c", "scale": true, "epsilon": 0.001, "beta_constraint": null, "axis": 1, "center": true}, "class_name": "BatchNormalization", "name": "bn5a_branch2c", "inbound_nodes": [[["res5a_branch2c", 0, 0, {}]]]}, {"config": {"moving_mean_initializer": {"config": {}, "class_name": "Zeros"}, "momentum": 0.99, "gamma_constraint": null, "trainable": false, "beta_regularizer": null, "moving_variance_initializer": {"config": {}, "class_name": "Ones"}, "gamma_initializer": {"config": {}, "class_name": "Ones"}, "gamma_regularizer": null, "beta_initializer": {"config": {}, "class_name": "Zeros"}, "name": "bn5a_branch1", "scale": true, "epsilon": 0.001, "beta_constraint": null, "axis": 1, "center": true}, "class_name": "BatchNormalization", "name": "bn5a_branch1", "inbound_nodes": [[["res5a_branch1", 0, 0, {}]]]}, {"config": {"trainable": false, "name": "add_14"}, "class_name": "Add", "name": "add_14", "inbound_nodes": [[["bn5a_branch2c", 0, 0, {}], ["bn5a_branch1", 0, 0, {}]]]}, {"config": {"activation": "relu", "trainable": false, "name": "activation_43"}, "class_name": "Activation", "name": "activation_43", "inbound_nodes": [[["add_14", 0, 0, {}]]]}, {"config": {"bias_constraint": null, "activity_regularizer": null, "trainable": false, "bias_regularizer": null, "strides": [1, 1], "activation": "linear", "padding": "valid", "name": "res5b_branch2a", "kernel_initializer": {"config": {"distribution": "uniform", "scale": 1.0, "mode": "fan_avg", "seed": null}, "class_name": "VarianceScaling"}, "dilation_rate": [1, 1], "kernel_size": [1, 1], "data_format": "channels_first", "use_bias": true, "kernel_regularizer": null, "filters": 512, "kernel_constraint": null, "bias_initializer": {"config": {}, "class_name": "Zeros"}}, "class_name": "Conv2D", "name": "res5b_branch2a", "inbound_nodes": [[["activation_43", 0, 0, {}]]]}, {"config": {"moving_mean_initializer": {"config": {}, "class_name": "Zeros"}, "momentum": 0.99, "gamma_constraint": null, "trainable": false, "beta_regularizer": null, "moving_variance_initializer": {"config": {}, "class_name": "Ones"}, "gamma_initializer": {"config": {}, "class_name": "Ones"}, "gamma_regularizer": null, "beta_initializer": {"config": {}, "class_name": "Zeros"}, "name": "bn5b_branch2a", "scale": true, "epsilon": 0.001, "beta_constraint": null, "axis": 1, "center": true}, "class_name": "BatchNormalization", "name": "bn5b_branch2a", "inbound_nodes": [[["res5b_branch2a", 0, 0, {}]]]}, {"config": {"activation": "relu", "trainable": false, "name": "activation_44"}, "class_name": "Activation", "name": "activation_44", "inbound_nodes": [[["bn5b_branch2a", 0, 0, {}]]]}, {"config": {"bias_constraint": null, "activity_regularizer": null, "trainable": false, "bias_regularizer": null, "strides": [1, 1], "activation": "linear", "padding": "same", "name": "res5b_branch2b", "kernel_initializer": {"config": {"distribution": "uniform", "scale": 1.0, "mode": "fan_avg", "seed": null}, "class_name": "VarianceScaling"}, "dilation_rate": [1, 1], "kernel_size": [3, 3], "data_format": "channels_first", "use_bias": true, "kernel_regularizer": null, "filters": 512, "kernel_constraint": null, "bias_initializer": {"config": {}, "class_name": "Zeros"}}, "class_name": "Conv2D", "name": "res5b_branch2b", "inbound_nodes": [[["activation_44", 0, 0, {}]]]}, {"config": {"moving_mean_initializer": {"config": {}, "class_name": "Zeros"}, "momentum": 0.99, "gamma_constraint": null, "trainable": false, "beta_regularizer": null, "moving_variance_initializer": {"config": {}, "class_name": "Ones"}, "gamma_initializer": {"config": {}, "class_name": "Ones"}, "gamma_regularizer": null, "beta_initializer": {"config": {}, "class_name": "Zeros"}, "name": "bn5b_branch2b", "scale": true, "epsilon": 0.001, "beta_constraint": null, "axis": 1, "center": true}, "class_name": "BatchNormalization", "name": "bn5b_branch2b", "inbound_nodes": [[["res5b_branch2b", 0, 0, {}]]]}, {"config": {"activation": "relu", "trainable": false, "name": "activation_45"}, "class_name": "Activation", "name": "activation_45", "inbound_nodes": [[["bn5b_branch2b", 0, 0, {}]]]}, {"config": {"bias_constraint": null, "activity_regularizer": null, "trainable": false, "bias_regularizer": null, "strides": [1, 1], "activation": "linear", "padding": "valid", "name": "res5b_branch2c", "kernel_initializer": {"config": {"distribution": "uniform", "scale": 1.0, "mode": "fan_avg", "seed": null}, "class_name": "VarianceScaling"}, "dilation_rate": [1, 1], "kernel_size": [1, 1], "data_format": "channels_first", "use_bias": true, "kernel_regularizer": null, "filters": 2048, "kernel_constraint": null, "bias_initializer": {"config": {}, "class_name": "Zeros"}}, "class_name": "Conv2D", "name": "res5b_branch2c", "inbound_nodes": [[["activation_45", 0, 0, {}]]]}, {"config": {"moving_mean_initializer": {"config": {}, "class_name": "Zeros"}, "momentum": 0.99, "gamma_constraint": null, "trainable": false, "beta_regularizer": null, "moving_variance_initializer": {"config": {}, "class_name": "Ones"}, "gamma_initializer": {"config": {}, "class_name": "Ones"}, "gamma_regularizer": null, "beta_initializer": {"config": {}, "class_name": "Zeros"}, "name": "bn5b_branch2c", "scale": true, "epsilon": 0.001, "beta_constraint": null, "axis": 1, "center": true}, "class_name": "BatchNormalization", "name": "bn5b_branch2c", "inbound_nodes": [[["res5b_branch2c", 0, 0, {}]]]}, {"config": {"trainable": false, "name": "add_15"}, "class_name": "Add", "name": "add_15", "inbound_nodes": [[["bn5b_branch2c", 0, 0, {}], ["activation_43", 0, 0, {}]]]}, {"config": {"activation": "relu", "trainable": false, "name": "activation_46"}, "class_name": "Activation", "name": "activation_46", "inbound_nodes": [[["add_15", 0, 0, {}]]]}, {"config": {"bias_constraint": null, "activity_regularizer": null, "trainable": false, "bias_regularizer": null, "strides": [1, 1], "activation": "linear", "padding": "valid", "name": "res5c_branch2a", "kernel_initializer": {"config": {"distribution": "uniform", "scale": 1.0, "mode": "fan_avg", "seed": null}, "class_name": "VarianceScaling"}, "dilation_rate": [1, 1], "kernel_size": [1, 1], "data_format": "channels_first", "use_bias": true, "kernel_regularizer": null, "filters": 512, "kernel_constraint": null, "bias_initializer": {"config": {}, "class_name": "Zeros"}}, "class_name": "Conv2D", "name": "res5c_branch2a", "inbound_nodes": [[["activation_46", 0, 0, {}]]]}, {"config": {"moving_mean_initializer": {"config": {}, "class_name": "Zeros"}, "momentum": 0.99, "gamma_constraint": null, "trainable": false, "beta_regularizer": null, "moving_variance_initializer": {"config": {}, "class_name": "Ones"}, "gamma_initializer": {"config": {}, "class_name": "Ones"}, "gamma_regularizer": null, "beta_initializer": {"config": {}, "class_name": "Zeros"}, "name": "bn5c_branch2a", "scale": true, "epsilon": 0.001, "beta_constraint": null, "axis": 1, "center": true}, "class_name": "BatchNormalization", "name": "bn5c_branch2a", "inbound_nodes": [[["res5c_branch2a", 0, 0, {}]]]}, {"config": {"activation": "relu", "trainable": false, "name": "activation_47"}, "class_name": "Activation", "name": "activation_47", "inbound_nodes": [[["bn5c_branch2a", 0, 0, {}]]]}, {"config": {"bias_constraint": null, "activity_regularizer": null, "trainable": false, "bias_regularizer": null, "strides": [1, 1], "activation": "linear", "padding": "same", "name": "res5c_branch2b", "kernel_initializer": {"config": {"distribution": "uniform", "scale": 1.0, "mode": "fan_avg", "seed": null}, "class_name": "VarianceScaling"}, "dilation_rate": [1, 1], "kernel_size": [3, 3], "data_format": "channels_first", "use_bias": true, "kernel_regularizer": null, "filters": 512, "kernel_constraint": null, "bias_initializer": {"config": {}, "class_name": "Zeros"}}, "class_name": "Conv2D", "name": "res5c_branch2b", "inbound_nodes": [[["activation_47", 0, 0, {}]]]}, {"config": {"moving_mean_initializer": {"config": {}, "class_name": "Zeros"}, "momentum": 0.99, "gamma_constraint": null, "trainable": false, "beta_regularizer": null, "moving_variance_initializer": {"config": {}, "class_name": "Ones"}, "gamma_initializer": {"config": {}, "class_name": "Ones"}, "gamma_regularizer": null, "beta_initializer": {"config": {}, "class_name": "Zeros"}, "name": "bn5c_branch2b", "scale": true, "epsilon": 0.001, "beta_constraint": null, "axis": 1, "center": true}, "class_name": "BatchNormalization", "name": "bn5c_branch2b", "inbound_nodes": [[["res5c_branch2b", 0, 0, {}]]]}, {"config": {"activation": "relu", "trainable": false, "name": "activation_48"}, "class_name": "Activation", "name": "activation_48", "inbound_nodes": [[["bn5c_branch2b", 0, 0, {}]]]}, {"config": {"bias_constraint": null, "activity_regularizer": null, "trainable": false, "bias_regularizer": null, "strides": [1, 1], "activation": "linear", "padding": "valid", "name": "res5c_branch2c", "kernel_initializer": {"config": {"distribution": "uniform", "scale": 1.0, "mode": "fan_avg", "seed": null}, "class_name": "VarianceScaling"}, "dilation_rate": [1, 1], "kernel_size": [1, 1], "data_format": "channels_first", "use_bias": true, "kernel_regularizer": null, "filters": 2048, "kernel_constraint": null, "bias_initializer": {"config": {}, "class_name": "Zeros"}}, "class_name": "Conv2D", "name": "res5c_branch2c", "inbound_nodes": [[["activation_48", 0, 0, {}]]]}, {"config": {"moving_mean_initializer": {"config": {}, "class_name": "Zeros"}, "momentum": 0.99, "gamma_constraint": null, "trainable": false, "beta_regularizer": null, "moving_variance_initializer": {"config": {}, "class_name": "Ones"}, "gamma_initializer": {"config": {}, "class_name": "Ones"}, "gamma_regularizer": null, "beta_initializer": {"config": {}, "class_name": "Zeros"}, "name": "bn5c_branch2c", "scale": true, "epsilon": 0.001, "beta_constraint": null, "axis": 1, "center": true}, "class_name": "BatchNormalization", "name": "bn5c_branch2c", "inbound_nodes": [[["res5c_branch2c", 0, 0, {}]]]}, {"config": {"trainable": false, "name": "add_16"}, "class_name": "Add", "name": "add_16", "inbound_nodes": [[["bn5c_branch2c", 0, 0, {}], ["activation_46", 0, 0, {}]]]}, {"config": {"activation": "relu", "trainable": false, "name": "activation_49"}, "class_name": "Activation", "name": "activation_49", "inbound_nodes": [[["add_16", 0, 0, {}]]]}, {"config": {"trainable": false, "data_format": "channels_first", "strides": [7, 7], "name": "avg_pool", "padding": "valid", "pool_size": [7, 7]}, "class_name": "AveragePooling2D", "name": "avg_pool", "inbound_nodes": [[["activation_49", 0, 0, {}]]]}, {"config": {"trainable": true, "name": "global_average_pooling2d_1", "data_format": "channels_first"}, "class_name": "GlobalAveragePooling2D", "name": "global_average_pooling2d_1", "inbound_nodes": [[["avg_pool", 0, 0, {}]]]}, {"config": {"bias_constraint": null, "activity_regularizer": null, "trainable": true, "bias_regularizer": null, "units": 512, "kernel_initializer": {"config": {"distribution": "uniform", "scale": 1.0, "mode": "fan_avg", "seed": null}, "class_name": "VarianceScaling"}, "activation": "relu", "use_bias": true, "kernel_regularizer": null, "name": "fc-1", "kernel_constraint": null, "bias_initializer": {"config": {}, "class_name": "Zeros"}}, "class_name": "Dense", "name": "fc-1", "inbound_nodes": [[["global_average_pooling2d_1", 0, 0, {}]]]}, {"config": {"seed": null, "noise_shape": null, "trainable": true, "name": "dropout_1", "rate": 0.5}, "class_name": "Dropout", "name": "dropout_1", "inbound_nodes": [[["fc-1", 0, 0, {}]]]}, {"config": {"bias_constraint": null, "activity_regularizer": null, "trainable": true, "bias_regularizer": null, "units": 256, "kernel_initializer": {"config": {"distribution": "uniform", "scale": 1.0, "mode": "fan_avg", "seed": null}, "class_name": "VarianceScaling"}, "activation": "relu", "use_bias": true, "kernel_regularizer": null, "name": "fc-2", "kernel_constraint": null, "bias_initializer": {"config": {}, "class_name": "Zeros"}}, "class_name": "Dense", "name": "fc-2", "inbound_nodes": [[["dropout_1", 0, 0, {}]]]}, {"config": {"seed": null, "noise_shape": null, "trainable": true, "name": "dropout_2", "rate": 0.5}, "class_name": "Dropout", "name": "dropout_2", "inbound_nodes": [[["fc-2", 0, 0, {}]]]}, {"config": {"bias_constraint": null, "activity_regularizer": null, "trainable": true, "bias_regularizer": null, "units": 2, "kernel_initializer": {"config": {"distribution": "uniform", "scale": 1.0, "mode": "fan_avg", "seed": null}, "class_name": "VarianceScaling"}, "activation": "softmax", "use_bias": true, "kernel_regularizer": null, "name": "output_layer", "kernel_constraint": null, "bias_initializer": {"config": {}, "class_name": "Zeros"}}, "class_name": "Dense", "name": "output_layer", "inbound_nodes": [[["dropout_2", 0, 0, {}]]]}], "name": "model_1", "input_layers": [["input_2", 0, 0]]}, "keras_version": "2.1.5", "class_name": "Model", "backend": "theano"}